…
onInfo":{"status":"ok","timestamp":1686326085196,"user_tz":-480,"elapsed":396,"user":{"displayName":"SI_Roma Mantiri","userId":"09318751497096627636"}},"outputId":"2defb9ed-ba57-4267-cee9-bb4c66625fb4","colab":{"base_uri":"https://localhost:8080/"}},"execution_count":null,"outputs":[{"output_type":"stream","name":"stdout","text":["Model: \"sequential_4\"\n","_________________________________________________________________\n"," Layer (type)                Output Shape              Param #   \n","=================================================================\n"," conv2d_16 (Conv2D)          (None, 148, 148, 16)      448       \n","                                                                 \n"," max_pooling2d_16 (MaxPoolin  (None, 74, 74, 16)       0         \n"," g2D)                                                            \n","                                                                 \n"," conv2d_17 (Conv2D)          (None, 72, 72, 32)        4640      \n","                                                                 \n"," max_pooling2d_17 (MaxPoolin  (None, 36, 36, 32)       0         \n"," g2D)                                                            \n","                                                                 \n"," conv2d_18 (Conv2D)          (None, 34, 34, 64)        18496     \n","                                                                 \n"," max_pooling2d_18 (MaxPoolin  (None, 17, 17, 64)       0         \n"," g2D)                                                            \n","                                                                 \n"," conv2d_19 (Conv2D)          (None, 15, 15, 64)        36928     \n","                                                                 \n"," max_pooling2d_19 (MaxPoolin  (None, 7, 7, 64)         0         \n"," g2D)                                                            \n","                                                                 \n"," flatten_4 (Flatten)         (None, 3136)              0         \n","                                                                 \n"," dropout_4 (Dropout)         (None, 3136)              0         \n","                                                                 \n"," dense_8 (Dense)             (None, 256)               803072    \n","                                                                 \n"," dense_9 (Dense)             (None, 2)                 514       \n","                                                                 \n","=================================================================\n","Total params: 864,098\n","Trainable params: 864,098\n","Non-trainable params: 0\n","_________________________________________________________________\n"]}]},{"cell_type":"code","source":["# Storing the average of all predictions\n","main_pred = []\
…
